Data/best_model.pth (torch, 275110 bytes, 6 tensors)

dag.layers.1.operation.linear.weight f4 [268, 65]
000000 e4 7f 7d bd 4b 94 6a 3d 4c b7 8f bb 8a 80 38 3c
       -0.061889544 0.05727033 -0.0043858644 0.011261115
000010 36 bd e3 bd 0a 5d cb bb 68 ae ee bd 2e c5 39 3d
       -0.111200735 -0.0062061595 -0.11654359 0.04535406
000020 6b e1 e2 3d 7f 29 ad bd 7e 57 49 3d bb 29 33 bc
       0.11078151 -0.084551804 0.049155705 -0.010935242
000030 e8 72 ed 3d ab 52 09 3e 0a bf f7 bb 08 79 93 bc
       0.11594182 0.13410442 -0.0075606154 -0.018002048
000040 5b 19 06 be bf 0d 1b bd 06 ac f6 bd 35 d8 80 bd
       -0.1309561 -0.037854906 -0.120445296 -0.06291238
000050 b6 1f ee bd ac 2d 8e 3d 1e a6 a2 3b 33 c3 d6 bd
       -0.11627142 0.06942305 0.0049636504 -0.1048645
000060 d3 f1 68 3d c1 7f c3 bd 06 59 06 3e 5f 31 f6 3d
       0.056871247 -0.095458515 0.13119897 0.120211355
000070 09 65 45 bd 60 6c 9e bd 17 f4 08 3e 8c 2b 93 bc
       -0.048192058 -0.07735515 0.13374363 -0.0179651
000080 7e 87 b7 bd 90 40 03 3e ad 8c 33 3d dd 91 46 bd
       -0.0896139 0.12817597 0.04383533 -0.04847895
000090 17 c7 b7 bd 97 4e d3 3d 7a a9 d6 bd 26 df 51 bd
       -0.0897352 0.10317724 -0.10481544 -0.0512382
0000a0 f1 21 c9 bd 3d 7d 33 3d 0e c7 08 3e ea 30 2b 3d
       -0.09820927 0.04382061 0.13357183 0.041794695
0000b0 c6 a7 79 3b 52 94 05 3e b4 69 b4 3c df ab 9b bc
       0.0038094386 0.13044861 0.02202306 -0.019002853
0000c0 13 91 4a bc f2 35 08 3e 10 99 46 3d 18 44 dd bc
       -0.01236369 0.13301829 0.048485816 -0.027010009
0000d0 95 0b c4 bd 35 d9 01 3e cd f0 cf bd fd 34 c7 3c
       -0.095725216 0.12680514 -0.10153351 0.024317259
0000e0 50 ae d3 bc 52 1a da bd be c0 4a bd a9 83 ba bd
       -0.025839955 -0.106495515 -0.04950022 -0.091071434
0000f0 b2 4f df bd 34 f0 3c 3c 3f 59 ac 3d eb d0 82 bd
       -0.109038725 0.011531878 0.0841546 -0.06387504
000100 f0 44 b7 3d d4 2a bf 3d e7 d6 20 bd 06 6e 65 3d
       0.08948696 0.09334341 -0.039267447 0.05601313
000110 0d 25 61 bd 76 7f 8a bd 02 cd d8 3d fa 96 a4 3c
       -0.054966975 -0.067625925 0.10585977 0.020091522
000120 58 7a ec 3c a9 87 92 bd 96 6b e6 bd 38 f2 d7 3d
       0.028866932 -0.07154781 -0.11250989 0.105442464
000130 5e ad cd 3c 76 8f da bb 24 34 8e bc 91 6e 4c 3d
       0.025107082 -0.006669934 -0.017358847 0.04991013
000140 e9 1f b6 bd b2 f6 c2 3d a2 cf f7 bd 52 8c 00 3e
       -0.08892805 0.0951971 -0.1210015 0.12553528
000150 10 31 9e 3d f7 c3 cc bd fb 37 f4 3d 96 08 80 bd
       0.07724202 -0.09998315 0.1192474 -0.06251638
000160 15 f2 02 bd d8 43 8b bd 53 dc 90 3b f7 35 c4 3d
       -0.03196915 -0.068000495 0.004420796 0.095806055
000170 0b dd 89 3c 70 b4 c4 bd 2d f9 2d bc 20 31 a1 3c
       0.016829034 -0.09604728 -0.01061849 0.019676745
000180 0a 0e 6b bc b4 cc f9 bd 64 1b 00 3e 10 3f 55 bd
       -0.014346609 -0.12197247 0.12510449 -0.052062094
000190 21 82 5c 3b 16 54 bd 3d ed 82 02 3e 40 6c 8c bd
       0.0033646899 0.09244554 0.12745257 -0.068565845
0001a0 07 44 83 3d 64 22 de bd 01 72 45 bd 79 3c bf 3d
       0.064094596 -0.10846403 -0.048204426 0.09337706
0001b0 ed ba 1a 3d b0 df ae bd 43 15 2b 3d c4 e0 7b 3d
       0.037775923 -0.08538759 0.041768324 0.06149365
0001c0 ba 24 e3 3d ca e3 c5 bd af 1e 08 be 32 21 9a 3c
       0.110909894 -0.09662588 -0.13292955 0.018814657
0001d0 e7 f2 82 bc 80 c0 63 bd 01 3e a4 3d c5 27 97 3c
       -0.015984965 -0.055603504 0.08019639 0.01845158
0001e0 54 7c a1 bd 45 20 56 bd c8 fc d9 bd 0b 58 d0 3d
       -0.07885042 -0.05227687 -0.10643917 0.10173043
0001f0 3e 64 4d 3c 90 11 9d 3c d6 63 6a bd 26 67 9a 3d
       0.012536107 0.019173414 -0.057224117 0.07539205
000200 09 71 a5 3c 91 28 d6 bd 12 2c ad bc 02 82 eb 3d
       0.0201955 -0.10456956 -0.021139178 0.114994064
000210 9d c4 05 be 8b 28 ba bc 67 a8 58 bc 47 32 f8 bd
       -0.13063283 -0.02272441 -0.013223744 -0.12118965
000220 76 06 98 3b 9d 77 6b bc 37 c4 c8 3d 0e 62 a8 bd
       0.004639442 -0.01437178 0.0980305 -0.082218274
000230 05 5a 03 3e df 6a dd 3d d4 c6 7a bd 82 ec a9 3d
       0.12827308 0.108114 -0.061224774 0.082970634
000240 76 2b c2 bd 7e 2d 59 3a 40 24 c5 3d 81 b4 11 3d
       -0.09480946 0.0008284672 0.09626055 0.035572533
000250 30 3f c9 3d fa d3 1e 3c 6c f7 b1 3d fc 4e dd bd
       0.09826505 0.009694094 0.0868977 -0.10806081
000260 dd f6 8f bd ab 70 f6 bc c1 0b a8 bd 37 ac 48 3d
       -0.07029507 -0.030083021 -0.08205367 0.048992362
000270 26 f0 c3 3d 10 05 11 3d bd 9c 13 3d 23 1f 9d bd
       0.09567289 0.03540522 0.03603815 -0.076719545
000280 48 2a 01 3e e0 a3 25 3d 11 33 83 bb 28 39 59 bd
       0.12613785 0.040439487 -0.0040038903 -0.053033024
000290 b8 36 02 be 55 46 4c 3b 45 da 5c bd 27 3b 5d bd
       -0.12716186 0.003116985 -0.053919096 -0.05401149
0002a0 ad 02 9a 3d 99 21 87 bc 71 19 1b bd d4 14 36 bd
       0.075200416 -0.016495513 -0.03786606 -0.044453457
0002b0 8c 2b b4 bd ee 87 f9 3c 99 a5 1e 3d 5a 38 1a bd
       -0.087973684 0.030460324 0.038732145 -0.037651397
0002c0 9e 43 d3 bd d1 81 7a 3d de 6b 97 3d 3b 4d f8 bd
       -0.10315631 0.06115896 0.07393621 -0.121241055
0002d0 49 4e 6f 3d 29 fc 9e 3d e2 01 1f bc be 23 33 3d
       0.058424268 0.077629395 -0.009705039 0.04373526
0002e0 da 8c 50 bb 1f fb a2 3d 69 87 9d bd 58 7f 9e bc
       -0.0031822235 0.07958054 -0.07691843 -0.019347832
0002f0 ef ec 8d 3c 46 4c 89 bc b9 74 06 bd 50 13 f0 bd
       0.017324893 -0.016760003 -0.03282616 -0.117224336
000300 cb 4d f6 3d 26 8c a1 bd e6 80 61 bd 76 19 81 bd
       0.120265566 -0.07888059 -0.055054568 -0.063036844
000310 7b ab 02 be d8 6f 05 3e a8 27 7c 3c 96 e3 fe 3d
       -0.12760727 0.13030946 0.015390314 0.12445752
000320 19 83 8b bd 5e f3 2e 3d 27 0e 60 3d ac b9 05 be
       -0.06812114 0.04271256 0.054700997 -0.1305911
000330 83 30 c0 bd 91 17 b5 bd 59 e5 15 3c 2e 76 f4 bc
       -0.09384253 -0.088423856 0.009148919 -0.029841509
000340 97 c3 30 3d 08 e3 89 3d 9b a0 87 bd 5f 93 23 bc
       0.04315528 0.06732756 -0.0662243 -0.0099838665
000350 08 6d 5a bd 8d 7c a0 3c ab 79 b4 bd 7f e0 eb 3d
       -0.053326637 0.01959064 -0.08812269 0.115174286
000360 c6 3c 4f 3d bb f5 eb 3d e2 ce e8 bd c3 54 ef bd
       0.050595067 0.11521479 -0.11367585 -0.11686089
000370 53 00 cb bd d2 84 38 bd cd 70 57 3d d9 b6 d5 3d
       -0.09912171 -0.045048542 0.05259781 0.10435266
000380 f7 f5 c0 bd b3 41 9a bd ca dc e9 bd 27 3e c8 bd
       -0.09421914 -0.075320624 -0.11419065 -0.097774796
000390 4d 4e 7f bd 28 82 03 3e 26 bd 28 3c e6 f5 6d bd
       -0.062330533 0.1284262 0.010299003 -0.058095835
0003a0 3a 88 a8 bc a5 66 22 3d 7f bb 5c bd 3b 0a d2 3d
       -0.02057277 0.03964867 -0.053889748 0.102558576
0003b0 ab e8 dd bd 2f 2c f8 bd 29 1e c9 bd 7b 69 a6 bd
       -0.108353935 -0.12117802 -0.09820206 -0.081255876
0003c0 18 37 86 3c 04 ce 87 bd 60 fd 53 3d 40 28 ee 3c
       0.016383693 -0.06631091 0.05175531 0.029071927
0003d0 13 48 92 3d 3f 20 d1 3d 15 d9 d3 3d 7c 1f 8b bd
       0.07142653 0.102112286 0.103441395 -0.067931145
0003e0 63 d9 bf 3c 3a e5 21 3b 65 b1 fa bd a0 4b 02 be
       0.023419088 0.002470328 -0.122408666 -0.12724161
0003f0 03 c6 a9 bd 09 bd 4a 3d 4a 61 23 bd 7e 02 9a 3c
       -0.08289721 0.049496684 -0.039887704 0.018800016

dag.layers.1.operation.linear.bias f4 [268]
000000 aa 1c a1 3d b5 35 70 bd 31 d5 1c 3d d6 e2 eb bd
       0.07866795 -0.05864497 0.038289253 -0.11517875
000010 54 dd cb bd a6 6c f1 bc c6 99 46 bc da 2f b3 bd
       -0.09954324 -0.029470753 -0.012121623 -0.08749361
000020 8b a3 4e bd 0a 5a 8c bd ce ac e3 3d 89 4b 83 3d
       -0.050448935 -0.06853111 0.11116944 0.064108916
000030 40 3b 83 bd af 75 ae 3d a6 60 e9 bc 69 b6 ca bd
       -0.064077854 0.0851854 -0.028488468 -0.09898073
000040 d6 2e 9d bd 71 77 9d bd c2 f0 85 bd a9 d6 da bd
       -0.07674949 -0.07688797 -0.065400615 -0.106854744
000050 07 38 e3 3d f0 e2 e4 bd 25 b3 98 3d 56 9c b2 bd
       0.11094671 -0.111760974 0.07456044 -0.08721225
000060 c1 60 e7 bd aa 68 63 bd 0f 25 be 3c 5e 03 da 3d
       -0.11297751 -0.055519737 0.02321103 0.106451735
000070 17 e1 b1 3c 35 e1 75 bd c9 51 9b 3d ff c1 32 3d
       0.021713777 -0.060029227 0.07583959 0.04364204
000080 b1 54 7b bd d3 9a fe 3c eb bb a6 3d fb 26 b6 3c
       -0.061360065 0.031079685 0.08141311 0.022235384
000090 d4 1a 85 bd f9 4e d5 bd a0 c4 a0 3d 3e fc d7 bd
       -0.06499258 -0.104154535 0.07850003 -0.10546158
0000a0 ac e2 98 bd 8a 5b 72 3d df da ba bd a1 50 00 bd
       -0.07465109 0.05916933 -0.091237776 -0.031326894
0000b0 0e 2b 9b 3d d6 f6 22 3b fe 7b 2e bd 72 6a e5 3b
       0.075765714 0.0024866364 -0.042598717 0.0070012147
0000c0 cb 03 6b ba 69 f1 86 bd fa 8e d9 3d dd 85 ef bd
       -0.0008965104 -0.06589014 0.10622974 -0.11695454
0000d0 82 73 de bc 09 e6 8a 3d 41 4b c5 bd 80 ed 95 bd
       -0.027154688 0.06782157 -0.09633494 -0.0732069
0000e0 76 aa 7f bd 14 4e f6 3d 62 a1 a9 3d 09 80 66 bd
       -0.062418424 0.12026611 0.082827345 -0.056274448
0000f0 b4 7a 4c 3d e7 59 e7 bc f5 56 d7 bd 25 61 d0 bd
       0.049921706 -0.028241111 -0.105146326 -0.10174779
000100 48 1b f1 bd b3 52 9c 3d 2e 9d c7 bd 1b 84 c8 bd
       -0.117727816 0.07632961 -0.097467765 -0.09790822
000110 96 94 90 bb 70 85 77 bd f2 c5 f0 3b c6 f3 e8 bb
       -0.004412244 -0.06042999 0.0073478157 -0.007109138
000120 2c 1d 5f 3d 12 71 9a 3d d5 81 9b 3d 4c e7 af 3d
       0.05447118 0.07541098 0.07593123 0.08589038
000130 3f ed 1f 3d 87 aa c8 bd 25 3b 49 bd c3 b3 3c bd
       0.039044615 -0.097981505 -0.04912867 -0.04606987
000140 00 e0 49 3c 3b 90 c3 bc f7 79 fb 3d 79 99 cf 3c
       0.012321472 -0.023872485 0.12279122 0.025341736
000150 98 e4 96 3d ab 34 e7 bd 6d 1e 92 bc b7 3b e4 3d
       0.073678195 -0.112893425 -0.017836774 0.11144202
000160 7a 97 f0 3d e4 99 5d 3d 4c 83 95 bd 26 45 ec bd
       0.11747642 0.05410184 -0.073004335 -0.115366265
000170 ab 9c 1b 3c 76 70 0a 3d 3a 65 72 bd 60 98 7a 3c
       0.009497802 0.033798657 -0.05917857 0.015295118
000180 cb e5 ce 3d 02 e1 fd 3d 68 3b cd 3d c9 b8 9d 3d
       0.10102423 0.123964325 0.100210965 0.077012606
000190 35 f1 04 bc 8d 85 cf 3d ca f5 1c 3d 4d 81 59 be
       -0.008114149 0.10132895 0.03832034 -0.2124073
0001a0 42 ca 90 3d 6a fe bc bd fb 60 3e be 4e 48 ea be
       0.070698276 -0.09228213 -0.18591683 -0.4575829
0001b0 6e 04 35 be 8a 3f 91 bd 07 be 26 be 64 42 c8 be
       -0.17677471 -0.07092197 -0.16283427 -0.39113152
0001c0 b6 53 14 bd 59 25 8d bc e3 92 80 bd 59 bd d6 be
       -0.036212645 -0.017229723 -0.062780164 -0.41941336
0001d0 a8 27 9a 3d 88 1b 08 bc 4f 51 65 be 33 37 6b 3e
       0.07527095 -0.008307345 -0.22394298 0.22970276
0001e0 be 1b bb be 3e b6 a3 be d9 43 a5 be e5 05 3b be
       -0.36544603 -0.31974977 -0.32278326 -0.18263967
0001f0 5a 83 b8 bd 20 2e 92 be 65 6f 39 3e 6b 44 c1 bc
       -0.09009428 -0.28550816 0.181089 -0.023592195
000200 24 30 77 3d 64 9a 74 3d 67 ed 15 3f ee ce c1 3c
       0.060348645 0.05971755 0.5856537 0.023658242
000210 b3 c7 05 be d5 a0 bc bd 68 97 e8 3c d3 bc 5c be
       -0.1306446 -0.09210364 0.028392509 -0.21556406
000220 52 82 67 bd 80 63 e6 3d 57 d4 ab bc 01 16 06 3e
       -0.056520768 0.11249447 -0.020975275 0.13094331
000230 75 7c 14 3d 1e 2b 34 be ba d1 12 be 84 16 ad 3d
       0.036251504 -0.17594573 -0.14337817 0.0845156
000240 7f 11 cd 3c da 2a 39 bd ac c9 33 3c 58 75 58 3d
       0.025032757 -0.045206882 0.010973375 0.052846283
000250 0b 31 fa bd be 42 fe ba ef a4 8c bd 6e 4f 2b be
       -0.122163855 -0.0019398553 -0.06867396 -0.16729519
000260 e8 64 03 3d 11 77 d1 bd 6d 2c 4f 3d 89 2a d3 bd
       0.032078654 -0.10227788 0.050579477 -0.10310847
000270 1f a2 5f be e3 fe cd bd af 10 5a bd 02 e5 c3 bd
       -0.21839188 -0.100583814 -0.053238567 -0.09565164
000280 92 00 0e be cc 48 a8 bc 6e 0c 84 3d 67 79 9b bc
       -0.13867405 -0.020542525 0.06447683 -0.018978788
000290 1c cf fa bd a6 ed 85 bd f0 9a 32 bd 59 8b e6 3d
       -0.12246534 -0.065394685 -0.04360479 0.11257047
0002a0 a7 37 80 bd 03 1d 50 bd fe af b8 bd 66 92 fd bd
       -0.06260615 -0.050808918 -0.09017943 -0.12381439
0002b0 05 30 b0 3c 2b 7f 46 3c 52 d4 c6 3d 93 7f 8f 3d
       0.021507272 0.01211528 0.09708466 0.07006755
0002c0 c4 58 24 bc 54 3a ee 3c 3f 44 a1 bc ee 8d a8 3d
       -0.010030929 0.029080547 -0.019685863 0.08230196
0002d0 6b 24 2b bd 3d 3f 19 bd c4 f6 05 3d aa 4b da 3c
       -0.041782778 -0.037413824 0.032706037 0.026647408
0002e0 9c cc ed 3d 7a 96 16 bd d6 3e 8e bd 3f b7 d0 3d
       0.11611292 -0.0367646 -0.06945579 0.101912014
0002f0 10 fb 50 bd de b1 fa bc a5 1e dd 3d cf 9f ab 3d
       -0.05102068 -0.030602392 0.107968606 0.083800904
000300 ad 18 81 3d 05 e2 b1 3d 31 15 9f 3d 14 0d da 3d
       0.06303535 0.08685688 0.07767714 0.10647026
000310 7e e0 16 3d 02 f6 d0 3d f4 19 17 bd c3 b0 8f bd
       0.036835186 0.10203172 -0.036889985 -0.070161365
000320 4c 88 05 3d 18 93 9d bd dd e7 23 3d bf 17 82 3d
       0.032600686 -0.076940715 0.040016044 0.063521855
000330 01 6a eb 3d ca 7a c4 3d 56 00 49 bd 64 9e 81 bb
       0.11494828 0.09593733 -0.049072586 -0.003955649
000340 b0 17 0f 3d 16 10 06 3d d0 ea 15 bd ab f1 58 bc
       0.0349347 0.032730184 -0.036600888 -0.013241212
000350 53 10 a7 bd f9 b0 ae 3a 56 34 cf 3d 01 96 88 bd
       -0.081574105 0.0013327888 0.10117404 -0.06669236
000360 cc d8 e0 3c fb de ab 3d 05 19 b9 bc a9 23 8e bd
       0.027447127 0.083921395 -0.022594938 -0.069403954
000370 f4 5b b7 bb 05 bf a6 3c cd b3 25 bd 27 45 bd bd
       -0.0055956785 0.020354757 -0.040454675 -0.092417054
000380 14 0b e8 bd 2f f4 ab 3d fa 67 b2 3c 8d d4 c8 3c
       -0.11330238 0.08396184 0.021778096 0.024515415
000390 ed 26 ba 3d 28 90 b9 bc 11 83 0c bb c1 a5 97 3b
       0.09089456 -0.022651747 -0.0021440426 0.0046279137
0003a0 d2 91 b8 bc 4e 1c bf bd 2a 30 d7 bc ea d8 dd 3d
       -0.02253047 -0.093315706 -0.026268084 0.10832389
0003b0 a4 97 0e 3d 7c 30 b2 bd b5 99 c4 3d d8 a5 f7 bd
       0.034812585 -0.08700654 0.0959963 -0.12092179
0003c0 23 b1 8b 3d 8f c0 5d bd f8 b0 d1 3d d7 98 29 3d
       0.068208955 -0.054138716 0.10238832 0.041405525
0003d0 7a 82 8b bd 73 9c 5f bd e8 0f a5 bc 11 f1 8a 3d
       -0.06811996 -0.05459256 -0.020149186 0.06784261
0003e0 db fa 3f bd 1d 7c 54 bc cb f4 63 3c ca 51 4c 3d
       -0.046870094 -0.012969044 0.013913344 0.049882688
0003f0 15 93 73 bd 9b a3 a4 bd c1 52 ea bd fa 47 30 bd
       -0.05946644 -0.08039018 -0.11441565 -0.043037392

dag.layers.3.operation.linear.weight f4 [171, 268]
000000 73 8c e5 bd d3 d9 13 3d 2d e5 60 bd c2 89 67 bc
       -0.11208429 0.036096405 -0.05490606 -0.014131965
000010 2f 0f d3 bd 70 2e cf bd 60 b5 97 bd 9e f3 e9 bb
       -0.103056304 -0.10116279 -0.074076414 -0.007139637
000020 b7 d6 70 3d a6 9c d8 3d a3 2b d9 bc f3 96 5f 3d
       0.058798518 0.10576753 -0.026510065 0.054587316
000030 f5 61 26 bd 30 9b aa 3d 0f 35 ce bc a1 7b c8 bd
       -0.040620763 0.08330381 -0.025171785 -0.09789205
000040 6b 81 7d 3d 84 3b c0 bd 5f 80 bc 3d 4f 4a 12 bd
       0.061891 -0.09386352 0.09204172 -0.035715397
000050 df 09 eb 3d bd 4a 97 3d d1 b5 15 bc b4 a9 5a 3d
       0.11476492 0.07387302 -0.009137587 0.053384498
000060 6f ec d7 3d d9 56 71 bd a3 3c 80 bc 84 2d 5d 3d
       0.10543143 -0.058920715 -0.015653914 0.053998485
000070 47 e9 0f 3d 1a 07 e4 bd 3d 42 ee 3d d5 35 db bb
       0.03513458 -0.11134167 0.11633728 -0.006689767
000080 90 7e 13 bd 29 eb f0 bc 64 bb ac bd 85 14 0e bc
       -0.03600937 -0.029409008 -0.084341794 -0.008671884
000090 5d b6 e4 3d 96 ec 47 3d ac 6e 8d bd eb f5 8d 3c
       0.111675955 0.04880961 -0.069058746 0.017329177
0000a0 9e 8a bf 3d f6 78 bd bd 6f 72 a1 bc 0c d3 4d 3d
       0.09352611 -0.09251587 -0.019707887 0.050250098
0000b0 a5 6d 1c 3d a0 9f 6e bd fe 81 c9 3c 0f ce 50 bd
       0.038190503 -0.0582577 0.024598118 -0.050977763
0000c0 4f 6f b1 3d c8 f0 b2 3d 5c 80 be bd e5 6e c7 bd
       0.086638086 0.08737332 -0.09301826 -0.09737948
0000d0 7a c3 6c 3c 85 89 ce 3d 65 d1 66 3c 31 72 de 3d
       0.014450902 0.100848235 0.0140880095 0.10861624
0000e0 ff 70 23 3d c2 82 12 3c e4 69 a7 bc 2e 50 b9 3d
       0.039902683 0.008942308 -0.020436235 0.09048496
0000f0 a7 a9 8d bd 7c 4c 97 3d 75 3a 94 3d 7d 81 cd bc
       -0.06917124 0.07387635 0.07237712 -0.025086159
000100 f4 63 a5 3d f9 1d ad 3d d2 e8 a4 3d 51 ec fc 3c
       0.08075705 0.084529825 0.080522195 0.030874403
000110 6e 3f ad bd 90 ef e1 bc 16 06 77 3d 80 60 6b 3d
       -0.08459364 -0.027580053 0.06030854 0.057465076
000120 6b e0 b6 ba e0 f4 88 bc dd be e7 3c ff 01 e9 bc
       -0.001395238 -0.016718328 0.028289253 -0.028443335
000130 61 4c a0 3c 53 1e fd 3c 4d af a9 3d 59 2f 3f bd
       0.01956767 0.030898249 0.08285389 -0.046676014
000140 67 3b bc bd 36 e0 dc 3d 0d 2e e8 bd 70 b0 82 bd
       -0.091910176 0.10784952 -0.113369085 -0.06381309
000150 84 16 ff 3c 93 58 ae bd f7 f8 74 3d d4 96 d2 bd
       0.031138666 -0.08512988 0.059807744 -0.102826744
000160 e9 f0 ae 3d fa 51 de 3a 6f 89 a0 bc 96 dc 94 bd
       0.08542044 0.0016961687 -0.019596783 -0.07268636
000170 46 39 3e bd fd f9 20 3c 6c df a4 3d e7 d1 8a bd
       -0.04644134 0.009825227 0.08050427 -0.06778317
000180 e0 a5 4e 3c 4b 5a 93 3d 42 62 da 3d c0 7f 4e bd
       0.01261279 0.071949564 0.106632724 -0.0504148
000190 69 c1 28 bd b2 70 c4 3d a6 58 cf 3d bd c5 cc 3d
       -0.041200075 0.095918074 0.1012433 0.09998653
0001a0 92 95 c6 bd 26 25 b5 bb 3d 2d a3 3d 37 53 ef 3c
       -0.09696497 -0.00552811 0.07967613 0.029214485
0001b0 cc 5f 57 3d 7e a8 8f 3d 19 e0 a4 3c 24 f9 22 bc
       0.052581593 0.07014559 0.02012639 -0.009947095
0001c0 1b b3 c4 bd d4 38 8a bb b4 25 31 3d 5d f8 52 3d
       -0.09604474 -0.0042182 0.043248847 0.05150639
0001d0 0f 54 48 3d 62 04 c4 bc 75 e7 d4 bd 44 c3 6e 3c
       0.04890829 -0.023927871 -0.103957094 0.014572922
0001e0 2d 41 b0 3c d1 75 32 bd a6 90 d3 bc 5e 30 97 3d
       0.021515453 -0.04356939 -0.02582581 0.07382272
0001f0 9e ae b7 3b ca f7 b8 3c f9 7f 72 bd 45 e8 bc 3c
       0.005605533 0.022579093 -0.059204075 0.023059973
000200 73 b2 81 bd 9b 1e 28 be db 0b ab 3e eb aa 83 bc
       -0.063328646 -0.16417925 0.33407483 -0.016072711
000210 3f 5e 8f bc 1c 76 e9 3c 36 f5 a2 3c 1c 4d cb bb
       -0.017500995 0.028498702 0.019892316 -0.0062042605
000220 29 07 af 3d 64 32 ac bd 1a 12 46 3e fd 63 23 bd
       0.085462876 -0.08408049 0.19342843 -0.039890278
000230 7e 2e b7 bc 4a 00 1f 3d 9e 4e 1e bd 9c 83 38 3d
       -0.022361036 0.038818635 -0.038649194 0.045047387
000240 c3 84 75 3d f2 0e b0 3d e7 1a 69 3d 37 72 34 3e
       0.059941065 0.085966006 0.05691042 0.17621695
000250 61 9b ce 3d 8a 86 b8 bb d5 7a c4 bd 53 de 03 be
       0.1008823 -0.0056312727 -0.09593741 -0.12877779
000260 fa e1 ed bd fd 6c d6 bd fb fa 1b be b0 b8 cf bd
       -0.11615367 -0.104700066 -0.1523246 -0.10142648
000270 6b dc a7 bd 29 76 b5 bc 7b e9 a7 3c c7 49 bc 3c
       -0.08196338 -0.02215107 0.020497074 0.022984399
000280 85 23 b3 bc 1c a3 90 3c 5b 90 1b 3d 6b 9b 4e 3d
       -0.021867523 0.017655902 0.037979465 0.050441187
000290 2f de 18 3d 3a 10 be bb 41 0b c0 3c 5e 47 f4 b9
       0.037321266 -0.005800274 0.023442866 -0.0004659248
0002a0 0f d9 c4 3d d8 86 31 bd fd 40 ae bd 4c 3e cc ba
       0.09611713 -0.043341488 -0.08508489 -0.0015582531
0002b0 e6 43 24 bd b1 8c 69 bd 0f 30 39 bd 95 8c dd 3d
       -0.040103815 -0.05701894 -0.045211848 0.108178295
0002c0 43 14 ad bd 9a 98 69 bc e9 2c 79 bd 9b 99 80 3c
       -0.0845113 -0.014257574 -0.060833845 0.015698245
0002d0 0c 06 36 3d ec 15 03 bd 7c 65 e3 3d a6 ab f1 bc
       0.04443936 -0.03200333 0.11103341 -0.029500794
0002e0 fb 8b 1f 3d 6f 66 a2 3d a6 04 26 3b f6 60 7c 3c
       0.038951855 0.07929694 0.002533236 0.015403977
0002f0 6d dd bf bc a6 82 8c bc a8 10 93 3d 9b 47 8c bd
       -0.023421014 -0.017152142 0.07180911 -0.06849595
000300 7a 7b 83 bd 6f c4 41 bc 6b 54 e8 bd ca 7a e6 3d
       -0.06420036 -0.011826619 -0.113442264 0.11253889
000310 64 52 bf bb 73 91 a0 3d 76 08 96 3d d2 d0 5f bd
       -0.005838679 0.07840242 0.073258325 -0.054642506
000320 32 05 2d 3c b0 ff a7 bd 21 d7 9e bd a0 d4 2a bb
       0.010560321 -0.082030654 -0.07755876 -0.0026066676
000330 27 8f b7 bd eb 2b 98 bd 39 ad 83 bd 1b 76 8a bd
       -0.08962851 -0.07430252 -0.06429524 -0.06760808
000340 aa 39 b4 bd 94 40 ca bb a3 83 7f 3d 7b 4a 51 bd
       -0.08800061 -0.006172249 0.062381398 -0.05109642
000350 80 3c 90 3b a6 0d 1c 3d 2f ff ee bd f2 d5 d0 bd
       0.0044017434 0.038098954 -0.11669766 -0.10197057
000360 6a bd 89 bd 69 13 92 bd 2c 22 b7 3d bc df de 3d
       -0.06725581 -0.071326084 0.08942065 0.10882518
000370 8f cc 91 bb c9 8a 59 bd 5d 1f ad bd 19 23 80 bd
       -0.004449434 -0.05311087 -0.08453248 -0.06256694
000380 9a a9 4e 3d de ea e5 bd 5e 5d 9c 3c 13 03 bd 3b
       0.050454713 -0.11226438 0.01908749 0.0057681887
000390 4c 06 99 bd 40 b2 dc 3c f3 b7 b4 bd 6c 29 85 bd
       -0.07471904 0.026940465 -0.08824148 -0.06502041
0003a0 99 0d 52 3d cc 65 b5 3d 82 d9 df bd d3 8e c0 bd
       0.0512825 0.08857307 -0.10930158 -0.094022416
0003b0 cd 6f 2f bd aa cf ae 3d bb 7a 52 3c aa 93 83 3d
       -0.04283123 0.085357025 0.012846644 0.06424649
0003c0 4f f7 b2 bc 18 c2 e8 bd c5 2f 42 bd 49 71 84 3d
       -0.021846442 -0.113651454 -0.047408838 0.0646692
0003d0 c0 7a 94 3c 85 4d 95 bd d4 d8 a7 bd 4a 75 9b 3d
       0.018124938 -0.07290176 -0.081956536 0.075907305
0003e0 df 28 d0 bc 52 e4 c1 3c e7 c4 e9 3d 9c 43 6b bd
       -0.025410114 0.023668442 0.11414509 -0.057437524
0003f0 37 4d bc 3d 8b 64 90 bd f1 a2 02 bd 24 b1 21 3d
       0.09194415 -0.07050427 -0.031893674 0.039475575

dag.layers.3.operation.linear.bias f4 [171]
000000 ad ed fc 3b 35 8b 12 be 97 0f fb bd ac ff 3a bc
       0.007718763 -0.14310916 -0.12258833 -0.011413496
000010 a8 39 9b bd a7 eb de bd 0e 94 1c be 33 b8 8f 3d
       -0.075793564 -0.10884791 -0.15290853 0.07017555
000020 7e ef 06 bc 05 24 02 be 9f 8b 71 bd 02 6c 6d bd
       -0.00823581 -0.12709053 -0.058971044 -0.057964332
000030 8d 91 ec bd 4e b9 8c ba 17 23 89 bc 94 1f af bd
       -0.11551199 -0.0010736377 -0.016740365 -0.08550945
000040 a7 00 84 be 3e 7a 26 3c a8 80 93 bd 72 d6 e3 3c
       -0.25781748 0.010160981 -0.072022736 0.027812216
000050 11 c4 e7 bd 4d 27 30 bd 19 af 99 3c 97 c7 20 be
       -0.113166936 -0.04300623 0.01876025 -0.15701137
000060 59 bf 5c bd de 74 a6 be a0 9e d8 bc 50 77 2a be
       -0.05389342 -0.32511038 -0.026442826 -0.16647077
000070 d9 aa 1d be ae ae 46 bd 0e 66 11 be e9 8f 9d bd
       -0.15397204 -0.04850643 -0.14199087 -0.07693464
000080 c8 83 b6 bc eb 4e 8d bd 34 98 ad bd 92 d6 3c be
       -0.022279635 -0.06899818 -0.08476296 -0.18441227
000090 8b 21 c5 bd d2 7a 0a be 9f b2 bb bd 90 9c bc bc
       -0.096255384 -0.13523415 -0.09164929 -0.023023874
0000a0 e2 df d5 bc c2 1e 99 bc 6c 68 98 bd f9 e1 82 bd
       -0.026107732 -0.018691424 -0.07441792 -0.06390757
0000b0 ad 80 9b bd aa 26 1b be 99 41 33 be 75 0b 28 be
       -0.07592902 -0.15151468 -0.17505492 -0.1641062
0000c0 b5 c8 8c be 94 a7 f0 bd 61 3b 8a bd b4 0b 99 be
       -0.27496877 -0.11750713 -0.06749607 -0.2989174
0000d0 b1 ac 51 3d 45 41 09 be e9 92 15 be 37 b5 16 be
       0.051190082 -0.13403805 -0.14606823 -0.14717565
0000e0 0c f1 a8 bd 86 23 a9 bd f8 eb a8 bd 8d 21 77 bd
       -0.08249101 -0.08258729 -0.082481325 -0.06033473
0000f0 8b 50 2a bd 05 f7 40 be c0 b5 82 be 52 61 a6 bd
       -0.041580718 -0.1884423 -0.2552929 -0.08124031
000100 a3 6e 23 bd c8 08 ca bc 21 17 c7 bd 64 bd 82 be
       -0.039900433 -0.02466239 -0.09721208 -0.2553512
000110 46 0a e9 bb 3e 6d 97 bd 08 b4 26 be 14 44 35 be
       -0.0071118204 -0.07393883 -0.16279614 -0.17701751
000120 7a 4a 8d be d2 25 38 be 81 a2 e1 bd 8e 9e cd bd
       -0.27595884 -0.17983177 -0.11017323 -0.100400075
000130 10 39 00 be b4 46 02 be 2b 4e 29 be 4c e8 29 bd
       -0.12521768 -0.12722284 -0.16533725 -0.0414813
000140 61 8b 8c bd d0 8b 0d bd 03 5c d7 bd 13 35 f3 bd
       -0.06862522 -0.034557164 -0.10515597 -0.118753575
000150 d7 db 0e be a2 52 7c bd 58 c6 16 be 0a 34 6e bb
       -0.1395105 -0.061602242 -0.147241 -0.0036346936
000160 2b 36 91 bd 58 16 9f bd 98 cb a9 bd db 66 14 bc
       -0.0709041 -0.077679336 -0.082907856 -0.009057726
000170 c6 06 a2 bd a7 07 6b bd 95 56 73 bd 9f 78 78 be
       -0.07911448 -0.057380345 -0.059408743 -0.24264763
000180 9c fb 8d bd d7 ef 07 be 76 9c 89 bd 0d fe fd bc
       -0.06932756 -0.13275085 -0.06719296 -0.03100493
000190 48 36 06 be e4 20 6c be 0d 69 81 bd 21 d4 0e be
       -0.13106644 -0.23059422 -0.06318865 -0.13948108
0001a0 d4 5c ea bd eb 8f 6e bd d2 a0 84 bd 73 ba 0c 3c
       -0.11443487 -0.05824272 -0.064759865 0.008589375
0001b0 49 04 23 bd 88 66 c4 bd 29 35 d3 bc 53 e3 53 bd
       -0.03979901 -0.09589869 -0.025782185 -0.051730465
0001c0 19 52 94 bd 0a f8 f4 bc e3 1e 0f be 9b 3d de bd
       -0.072422214 -0.02990343 -0.13976626 -0.10851594
0001d0 8d 50 01 be 9a e7 c4 bd be 5f ad bc 99 98 0c be
       -0.12628384 -0.09614487 -0.021163817 -0.13730086
0001e0 f1 22 49 bc 6d a3 ff bd e3 31 3d be 88 c6 59 be
       -0.012276397 -0.12482343 -0.18476062 -0.2126714
0001f0 49 36 36 be 4d 9a 62 be f4 e4 2f be 92 2f f6 bd
       -0.17794146 -0.22129174 -0.17177182 -0.12020792
000200 4d cf 02 be b7 e9 01 be 26 97 a6 bd b4 c0 14 bd
       -0.12774391 -0.12686811 -0.08134298 -0.03631659
000210 84 12 2d bd e9 67 05 be c7 be bf bc 83 2c 52 be
       -0.042253986 -0.1302792 -0.0234064 -0.20524792
000220 20 a8 77 bd ab e1 aa bd cf 33 a6 3c 0a 9b ba bc
       -0.06046307 -0.08343824 0.020288376 -0.022779007
000230 fa d9 a8 bd 22 a9 8c be d9 4a 8f bd bf f8 04 be
       -0.08244701 -0.27472788 -0.06996698 -0.12985514
000240 9d b1 66 be e1 9d 65 bd 25 99 ca bd 21 e3 88 bd
       -0.22528692 -0.05605877 -0.09892491 -0.066839464
000250 fc a1 b2 bc 9d da e5 bc 8f b2 50 be 01 f2 0f bc
       -0.021805756 -0.028058344 -0.20380615 -0.008785726
000260 95 5f f4 bc e0 85 b0 bd e7 6e 80 bd d7 16 2a be
       -0.029830733 -0.08619285 -0.06271153 -0.16610275
000270 11 12 d7 bd 68 70 96 3d a4 a7 d1 bd e2 31 3a bd
       -0.10501493 0.073456585 -0.10237053 -0.04545773
000280 8f d4 1e be 3a 08 0f be 4f b3 7c be 5c 8e 2d be
       -0.15510772 -0.13967982 -0.24677776 -0.16948837
000290 91 fa c1 bd 61 27 a3 bd a9 23 33 bd ff a0 76 bd
       -0.0947162 -0.07966495 -0.04373518 -0.06021213
0002a0 d1 d9 d1 bd 05 41 26 bb b7 a2 ef bd
       -0.10246623 -0.0025368345 -0.11700957

output.operation.linear.weight f4 [25, 171]
000000 b4 a5 b0 bd 48 93 14 be 98 0c 17 3d 72 44 94 bc
       -0.08625355 -0.14509308 0.036877245 -0.018099044
000010 27 cc 89 bd 15 36 a2 3d 0c 69 fe 3c 33 d6 12 3e
       -0.06728392 0.079204716 0.03105595 0.14339523
000020 7c aa 39 bc 18 fb bc 3d c7 78 96 bd ea 44 94 3d
       -0.011332151 0.0922758 -0.07347255 0.07239707
000030 6f 22 1a 3d 83 89 e8 3c 66 f4 bb 3b 78 51 0d bd
       0.037630495 0.028385883 0.0057359217 -0.034501523
000040 9c c1 5f 3c 17 26 b9 bd bb cd 1e bd 29 b0 f9 3c
       0.013657 -0.09040468 -0.03877042 0.030479508
000050 31 31 de 3d 17 15 db 3d a1 b0 00 be cb f6 e5 bd
       0.10849226 0.10697382 -0.12567379 -0.11228713
000060 25 c8 cd bd d8 39 d0 bd 49 9f 0d 3d 1b e4 97 3d
       -0.1004794 -0.10167283 0.034575734 0.074165545
000070 6c 62 04 3c 81 2d 2d 3c 46 00 09 bd 87 e1 50 3d
       0.008080106 0.010569931 -0.033447526 0.05099633
000080 d4 73 c1 3d 5a 52 11 3c a1 8d 07 3e 58 5b 8c bd
       0.094459206 0.008869732 0.13237621 -0.0685336
000090 ad a7 20 3e 72 22 33 3d ef da a1 bc 51 a3 b9 3d
       0.15688963 0.04373402 -0.019757716 0.09064353
0000a0 58 27 af bc b4 f8 f5 3c 73 ed 2a bd b9 a1 cc bd
       -0.021381065 0.030025817 -0.041730355 -0.09991784
0000b0 82 8a 0f bd d4 80 b6 bd f8 45 46 bd b8 4a bd 3d
       -0.0350442 -0.08911291 -0.04840657 0.09242767
0000c0 e9 dd b8 bd 0a 45 40 bd 38 63 c2 bd 5d 5b 14 3e
       -0.09026701 -0.04694084 -0.09491581 0.14487977
0000d0 ac 7b f9 ba 14 5c c1 bc be 7e 03 bc 29 07 c4 bc
       -0.001903405 -0.023603477 -0.008025823 -0.023929195
0000e0 ea df cf 3d 59 95 e3 3c 55 c7 ca bc 1f c9 e2 bc
       0.1015013 0.027781175 -0.024753252 -0.027683793
0000f0 c4 ca ac bd 74 f6 94 3c 96 9e 0c bb 94 5a d7 bc
       -0.08437112 0.018183924 -0.002145683 -0.026288308
000100 77 bc 44 3d f1 fb 94 bd 28 f4 41 bd c0 2b 1a bc
       0.048031297 -0.072746165 -0.047351986 -0.009409845
000110 e0 87 3b 3d 5b e4 8d bd 85 c0 ea 3d 0d e1 97 3c
       0.045783877 -0.06928321 0.114625014 0.01853993
000120 65 71 f7 3d b1 a0 00 3c 37 2b 07 3e 97 ec 7d ba
       0.12082175 0.007850812 0.13200079 -0.0009686439
000130 a2 88 b8 3d eb bf 28 bc 33 e4 20 bd f0 aa d9 bd
       0.09010436 -0.010299663 -0.039280128 -0.10628307
000140 0f 08 0e bd 87 8e 30 bd 66 45 c9 3b 76 52 55 bc
       -0.034675654 -0.043104675 0.006142306 -0.0130201485
000150 41 cc b6 3d 1e 3d ab bd bc 73 2f 3e 03 85 8a 3a
       0.08925677 -0.083612666 0.17133993 0.0010568205
000160 f2 7e c0 3c d6 89 6c 3d 12 78 0a bd 71 9a ab bd
       0.023498032 0.057748638 -0.033805914 -0.08379067
000170 b7 e6 a3 bd ea 81 f5 bd 03 0f 04 be dd 19 3e 3d
       -0.0800299 -0.1198767 -0.12896352 0.046411384
000180 59 92 77 3d 72 a4 71 3a da e2 c9 3d dc 0c 48 bb
       0.060442302 0.00092179247 0.098577216 -0.0030525243
000190 34 1e 86 3d 0e e5 bb 3d 9c 53 2c 3c 80 31 70 3d
       0.065487295 0.09174548 0.010517981 0.058640957
0001a0 28 16 89 bd 56 ff 6c bd 30 41 be ba 3d 97 ba 3d
       -0.06693679 -0.057860695 -0.0014515277 0.09110878
0001b0 56 3f 9e bc e1 88 49 bd 2a 33 0a 3c 85 a4 dd 3d
       -0.01931731 -0.049202804 0.00843505 0.10822395
0001c0 aa 29 8c bd d1 7f c7 bd 2c 83 02 be ad 75 b8 3d
       -0.06843884 -0.09741176 -0.1274535 0.0900682
0001d0 90 e7 6e bd ee 47 24 bc a4 63 d5 3d 4f 50 ce bd
       -0.058326304 -0.010026915 0.104193956 -0.100739114
0001e0 bc 23 21 be ab 42 b5 bd b4 2f d8 bc c9 fe 9c bd
       -0.15736288 -0.088506065 -0.026389934 -0.07665784
0001f0 55 cb c4 3d b7 cd 83 3d d1 7d ba bd b1 ce 05 3e
       0.09609095 0.06435721 -0.09106029 0.13067128
000200 f1 63 9b bd 5a 34 aa 3b c6 d5 8e 3c f9 1c 55 bd
       -0.07587422 0.005194229 0.01743592 -0.052029584
000210 7b a7 19 3e cc 11 d7 bc c3 d2 13 3e e4 43 a3 bc
       0.15005295 -0.026253603 0.14435868 -0.019929834
000220 a7 cb 05 bd 9a 43 34 3b 09 d0 a7 bc af ac f6 3c
       -0.03266492 0.0027506114 -0.020484941 0.030111639
000230 fc c3 91 3d e1 65 8c bd 0f 72 69 3d 87 3e 27 ba
       0.07117459 -0.06855369 0.05699354 -0.0006379862
000240 1a 16 9f bd 5b 18 95 bd 77 af 51 3d ab 76 56 3d
       -0.077678874 -0.07280036 0.051192727 0.052359264
000250 dd 41 84 bd 8a 65 c9 bd e0 7a b7 3d f4 2b e7 bd
       -0.06457875 -0.0983382 0.089589834 -0.1128768
000260 ea 8a 74 3d 60 56 06 3d 1d c9 81 3d 41 d3 65 3d
       0.05970279 0.032797217 0.063371874 0.05610967
000270 60 20 e7 3c d2 97 49 be f2 80 03 3c 67 28 96 3c
       0.02821368 -0.19686821 0.008026348 0.018329812
000280 4b 54 a9 3c 65 a4 a4 bd 6d a3 aa bd 80 bb 03 3d
       0.020670077 -0.08039168 -0.08331952 0.032161236
000290 19 e5 95 bd 5a 41 af 3d b2 56 0b bd 0f 31 fd 3d
       -0.073190875 0.08557387 -0.034018226 0.12362873
0002a0 50 de 2b bc fa b8 af bd 61 bd c0 3d 2b b9 39 3d
       -0.010490015 -0.08580203 0.09411121 0.045342606
0002b0 a9 7d 8b 3d 81 f6 ce 3d 50 f4 e2 3d 34 72 b3 3c
       0.06811077 0.10105611 0.11081755 0.021905042
0002c0 bd 90 b6 3c 1f f6 11 3d 3b f4 e6 3d 8a 1a a6 3d
       0.022285813 0.03563511 0.11277052 0.08110531
0002d0 70 0e e6 3a 07 8c 01 bd f5 65 9d bd a6 f6 9b bc
       0.001755191 -0.03162768 -0.076854624 -0.01903851
0002e0 4c 03 10 bd db fa 7f 3d 9b 99 09 bd eb b5 b1 bd
       -0.035159394 0.062495094 -0.033593755 -0.08677276
0002f0 54 da c4 3d bc 34 d2 bc 9f fe 04 3e 2f 0e c2 bb
       0.09611955 -0.025659911 0.12987755 -0.005922101
000300 b1 67 94 3c b2 20 58 be e2 63 b0 3d e3 2d 18 3d
       0.01811585 -0.21106222 0.08612801 0.037153136
000310 28 b6 00 be 84 81 14 bc c6 c8 7a 3c f6 b2 8a 3d
       -0.12569487 -0.009064082 0.015306657 0.06772415
000320 37 86 02 bd 46 50 a6 3c 18 67 1d be d1 e0 90 bd
       -0.03186628 0.02030195 -0.15371358 -0.0707413
000330 62 82 91 bd ea af 39 3b 6d 2e 3f 3d 0b 95 80 3d
       -0.07104947 0.0028333613 0.046675134 0.06278428
000340 f9 ed 62 bc 43 c6 d2 3b 0e 8c b2 bc 9a 23 84 3c
       -0.013850682 0.006432326 -0.021795299 0.016130257
000350 3d f7 77 bd c8 cf 71 3c 44 e6 9e bd 1c 30 82 bd
       -0.06053852 0.014759012 -0.077587634 -0.063568324
000360 13 1b e1 bd 54 5a d8 bd f8 3f 09 be a2 c0 89 bd
       -0.10991492 -0.10564104 -0.13403308 -0.06726195
000370 b7 38 3b bc be a6 9b bd 93 00 73 bd 96 7a 24 3e
       -0.011427096 -0.07600163 -0.05932672 0.16062388
000380 67 b0 83 3c b8 99 87 3d 4a 02 11 bd bb a9 bb 3d
       0.016075326 0.066211164 -0.035402574 0.09163233
000390 da d9 a4 bd dc 4e db ba 95 60 a9 bd 57 25 fa 3b
       -0.080493644 -0.0016731876 -0.08270375 0.007633846
0003a0 c2 58 81 bc 4d da 03 3e 22 45 06 be ae c7 b8 bd
       -0.015789393 0.12876244 -0.1311231 -0.09022461
0003b0 54 dd ae 3c 81 37 54 bd c6 07 d6 bd 8a 55 02 3e
       0.021345772 -0.051810745 -0.104507014 0.12727943
0003c0 e2 2e a3 bc 3e db 22 3d cd 26 a8 3c fe d2 bb 3d
       -0.019919816 0.039759867 0.020526314 0.09171103
0003d0 82 04 da bd bb c1 cc bd f6 9d 3b bc 0d dc d0 bb
       -0.10645391 -0.09997889 -0.011451235 -0.0063738883
0003e0 e7 e2 b0 3d 01 37 03 bc 3a 7c 03 bd 2a 0d e9 3c
       0.08637028 -0.008008719 -0.032100894 0.02844866
0003f0 e4 6e c0 bc a3 10 5c bd 33 a5 a0 3d 95 55 5d bd
       -0.023490377 -0.053726804 0.07844009 -0.054036696

output.operation.linear.bias f4 [25]
000000 fb b2 11 bc 76 06 e9 bc 26 30 95 3c 9d a5 03 bd
       -0.00889277 -0.028445464 0.018211436 -0.032140363
000010 97 93 3f bd 86 6f 8c 3c 02 cf 67 bd 34 51 9b bc
       -0.046771612 0.017143022 -0.056593902 -0.01895962
000020 e9 e6 3d bd 4a 88 bb bd 91 52 16 3d 7e b5 ac bc
       -0.04636279 -0.091568545 0.036699835 -0.021082636
000030 b0 16 0d bd 92 c3 a7 bd 0d 80 c0 3c 04 d4 bd bc
       -0.034445465 -0.08191599 0.02349856 -0.023172386
000040 be f7 86 bc 44 e8 1e 3c ff 34 3b bd 5f d7 0d bd
       -0.016475555 0.009698931 -0.045704838 -0.034629222
000050 0a c4 9a bc d0 2e cb 3c e1 1a 79 bd 71 59 21 3d
       -0.018892307 0.024802595 -0.06081665 0.03939194
000060 92 ce 77 bc
       -0.015124934
